…
Train on 36000 samples, validate on 24000 samples
Epoch 1/100
36000/36000 [==============================] - 10s 284us/sample - loss: 0.0138 - accuracy: 0.9951 - val_loss: 0.1029 - val_accuracy: 0.9766
Epoch 2/100
36000/36000 [==============================] - 11s 294us/sample - loss: 0.0156 - accuracy: 0.9945 - val_loss: 0.1078 - val_accuracy: 0.9760
Model: "sequential_50"
_________________________________________________________________
Layer (type)                 Output Shape              Param #   
=================================================================
conv2d_43 (Conv2D)           (None, 14, 14, 40)        3280      
_________________________________________________________________
dropout_58 (Dropout)         (None, 14, 14, 40)        0         
_________________________________________________________________
conv2d_44 (Conv2D)           (None, 5, 5, 32)          11552     
_________________________________________________________________
conv2d_45 (Conv2D)           (None, 2, 2, 24)          6936      
_________________________________________________________________
flatten_50 (Flatten)         (None, 96)                0         
_________________________________________________________________
dense_189 (Dense)            (None, 10)                970       
=================================================================
Total params: 22,738
Trainable params: 22,738
Non-trainable params: 0
_________________________________________________________________
10000/10000 [==============================] - 1s 84us/sample - loss: 0.0857 - accuracy: 0.9797

